…
(\"The ECB's monetary policy is very ineffective for stabilizing the economy.\")\nprint(result)\n\n[{'label': 'NEGATIVE', 'score': 0.9997608065605164}]\n\n\nThis uses a pre-trained model that has been fine-tuned on a large dataset for sentiment analysis. The output will show the predicted label (e.g., “NEGATIVE”) and the confidence score for that prediction. To see which model is being used, we can check the default model used by the pipeline\n\nprint(analyzer.model)\n\nDistilBertForSequenceClassification(\n  (distilbert): DistilBertModel(\n    (embeddings): Embeddings(\n      (word_embeddings): Embedding(30522, 768, padding_idx=0)\n      (position_embeddings): Embedding(512, 768)\n      (LayerNorm): LayerNorm((768,), eps=1e-12, elementwise_affine=True)\n      (dropout): Dropout(p=0.1, inplace=False)\n    )\n    (transformer): Transformer(\n      (layer): ModuleList(\n        (0-5): 6 x TransformerBlock(\n          (attention): DistilBertSdpaAttention(\n            (dropout): Dropout(p=0.1, inplace=False)\n            (q_lin): Linear(in_features=768, out_features=768, bias=True)\n            (k_lin): Linear(in_features=768, out_features=768, bias=True)\n            (v_lin): Linear(in_features=768, out_features=768, bias=True)\n            (out_lin): Linear(in_features=768, out_features=768, bias=True)\n          )\n          (sa_layer_norm): LayerNorm((768,), eps=1e-12, elementwise_affine=True)\n          (ffn): FFN(\n            (dropout): Dropout(p=0.1, inplace=False)\n            (lin1): Linear(in_features=768, out_features=3072, bias=True)\n            (lin2): Linear(in_features=3072, out_features=768, bias=True)\n            (activation): GELUActivation()\n          )\n          (output_layer_norm): LayerNorm((768,), eps=1e-12, elementwise_affine=True)\n        )\n      )\n    )\n  )\n  (pre_classifier): Linear(in_features=768, out_features=768, bias=True)\n  (classifier): Linear(in_features=768, out_features=2, bias=True)\n  (dropout): Dropout(p=0.2, inplace=False)\n)\n\n\nWe can see that it is using DistilBERT as the model for sentiment analysis.\nLet’s apply this sentiment analysis pipeline to the sentences in our dataset and see how well it performs compared to our Random Forest classifier that used sentence embeddings as features.\n\nresults = analyzer(df[\"text\"].to
…
